urlClassifier.pth (torch, 9924 bytes, 6 tensors)

network.0.weight f4 [24, 47]
00000000: c576 0cbf ca84 fcbf 6100 90c0 2035 3141
00000010: fc77 98c1 ff8c cdc0 cad2 9a40 7862 09be
00000020: 677d b73f 9779 ad40 148b fe40 9722 7a41
00000030: 7166 04c1 831a 11c0 a672 56c0 2219 d4bf
00000040: 1939 3bc1 3319 c3bf f779 8e3f 3834 2c41
00000050: e9e7 9140 206e 8fc0 e132 4a3f 9375 98c0
00000060: 8364 91bf ade4 4dc1 be17 46c0 7105 a1bf
00000070: a557 9fc0 7b00 7d40 19dc 77c0 0dec 66bf
00000080: 2616 0940 747a 28bf c2d3 4d40 6dce 31c0
00000090: 598f 91be 9eff ee3d 1858 2c3f e020 103e
000000a0: 2a24 fbc0 0f21 1fc0 d015 0940 bab4 eebf
000000b0: 9174 75c0 c6ad 043f 024a 1ec0 7ec4 8dc0
000000c0: b8d8 1940 ea72 12c1 1e5d 8ec1 be16 0742
000000d0: 50a6 6341 88bc d8bf 7238 95bd 144c 4540
000000e0: c1ae c0c1 5306 d53f 131b 95c0 ef88 fdbf
000000f0: bc50 0441 6b03 eec0 1b2a 1240 58b8 f441
00000100: 3ba6 dd40 bb4c 6abe 8adc 2ac2 1000 9cc0
00000110: 7efd d3c0 3aa3 07bf cc01 5fbd fa5d 3c41
00000120: 9646 1c41 4a2a c540 5a97 aebd 4504 b8bf
00000130: 4a5c e1bd ffd3 9840 38bc e4bf 160d b23f
00000140: 6ca7 4540 aeb5 b53f 73ae 1c3f 4d2a 1fc1
00000150: b52f e8c0 14a8 e0c0 a4cc d33d 57e0 0141
00000160: d03d d9bf f505 ef3f bcc7 29c0 6404 8240
00000170: d086 113e a410 473c 96f3 1e3f 4605 38bf
00000180: f533 0740 e14e b340 35ee edc1 249a 66c1
00000190: 5cbd 1f40 5424 123d 3a03 d13f e5ab fc41
000001a0: b589 c840 9d90 d040 9011 03c1 4c6e cfc0
000001b0: db95 2241 b5c3 afc0 8a25 bac1 0ee7 eec0
000001c0: 7d89 633f bf31 3a42 d979 61c0 b314 0541
000001d0: 7982 a8bf ab56 633f 3f94 8dc0 be0f 1ec1
000001e0: 9549 a0c0 aed2 1a3f 10fb af3d 6de1 f1bf
000001f0: 05fd 00c0 9115 ffbe 9e26 d8c0 ca4c 8dbf
00000200: 4cd9 1cc0 605d 23c0 5faa d93f cc01 ee40
00000210: 9e5e 2d3f a681 98bd 53be 4840 d6ab f13f
00000220: 80bb f1bf 4d3f 0141 cf92 d4c0 7853 fac0
00000230: ea37 96c0 db98 cc3e 1167 01bf 720e 05c1
00000240: 91eb ab41 772a f2c1 42f1 5dc1 3c71 8c40
00000250: 4bd8 09be 2615 c63f 3a62 cb41 a389 bf40
00000260: bac1 2141 25c2 58c1 cc17 c3c0 54c9 023b
00000270: 5aca 71c0 a849 b1c1 8b89 ccc0 20ff 4d3f
00000280: d2bd 1442 4f47 ed40 1add eabf 312d 093f
00000290: 0e00 efbc 6b01 cbc0 5071 f4c0 f76b a1c0
000002a0: 0a96 11c0 eb40 31bf 656f 2c40 b152 5fc0
000002b0: b94e b23d e518 09bf 5174 e3bf b283 3fbf
000002c0: 9039 6dbf fc55 513f d99d 9040 ae99 733f
000002d0: ba31 59bd 2773 30c0 1eb9 d4be 0e68 a240
000002e0: e242 6e40 03e4 f4c0 3a75 66bc 146a 7dc0
000002f0: e172 8dbf 576f de3f 4df4 873f 8700 26c1
00000300: 1f78 a641 8176 d03f b512 cfc0 284f adbd
00000310: ef28 e6c0 386a 29c1 1587 08c1 7683 0fc1
00000320: 4d9c e940 c9b6 2b40 52b2 64c0 557f 4840
00000330: e388 6441 c350 3f40 8a30 da3e b94d 4fc1
00000340: 8acf aa3f b559 12c0 625e 893f 324c bcbf
00000350: db89 30c1 3898 0441 d5ab 2c40 e8c6 0740
00000360: 0425 8a3f a81b 72be 6dba ba40 f320 f83f
00000370: 874f 07c0 4edb 2940 b2dd 15bf 252c 97bf
00000380: 5a87 af3f 5c4f a1c0 c47c 88c0 3cad d73d
00000390: 641b 12bf ca68 393e 2c0a e6bf 899f 99c0
000003a0: 0a07 b53f 3248 343e 9485 8e40 b7f1 52be
000003b0: 96d2 9bbf c4eb 2fc0 8dc9 4341 b485 cbc1
000003c0: 39b6 63c1 c08f 833e 4fa3 e8bd 4506 f2bf
000003d0: 21e0 dc41 6a5a 3c41 06a4 c740 ca4e 29c1
000003e0: 3d53 b3c0 cda6 da3f b34d 7cc0 72b6 adc1
000003f0: cd06 a9c0 480e a93e 8b69 0a42 7c86 c7bf
-0.5486873 -1.9728024 -4.5000463 11.07547 -19.058586 -6.4234614 4.838231 -0.13416469
1.4335145 5.4210925 7.9544773 15.633445 -8.27501 -2.2672431 -3.3507476 -1.657017
-11.70144 -1.5242065 1.1130971 10.762749 4.5595593 -4.482193 0.78983885 -4.7643523
-1.1358799 -12.868329 -3.095199 -1.2579786 -4.979449 3.9531543 -3.8728087 -0.90203935
2.1419768 -0.6581185 3.2160497 -2.7782242 -0.28429678 0.11669849 0.6732192 0.14075041
-7.8481646 -2.4863927 2.1419563 -1.8648903 -3.8352396 0.5182766 -2.473267 -4.430236
2.4038525 -9.153055 -17.795467 33.77221 14.228104 -1.6932535 -0.07286157 3.0827684
-24.08533 1.6642555 -4.659555 -1.9807414 8.269711 -7.437917 2.28382 30.590012
6.926542 -0.22880833 -42.71537 -4.8750076 -6.624694 -0.5298344 -0.054445073 11.7729435
9.767233 6.1614122 -0.08524962 -1.4376303 -0.11003931 4.7758784 -1.786994 1.3910244
3.0883436 1.4196069 0.6120369 -9.947827 -7.2558236 -7.0205173 0.103417665 8.11727
-1.6971989 1.8673693 -2.6528158 4.063036 0.14211583 0.0121499635 0.6209043 -0.71883047
2.1125462 5.603379 -29.741312 -14.412632 2.4959326 0.035679176 1.632911 31.583933
6.26681 6.517653 -8.191788 -6.482214 10.161586 -5.49264 -23.26833 -7.465705
0.88881665 46.54858 -3.523062 8.3175535 -1.3164817 0.8880412 -4.4243464 -9.878843
-5.008982 0.6047772 0.08592808 -1.889692 -2.015443 -0.4982114 -6.754714 -1.1039059
-2.4507627 -2.5525742 1.7005118 7.4377193 0.677225 -0.074466035 3.1366165 1.8880565
-1.8885345 8.077954 -6.642921 -7.822689 -4.6943254 0.3996037 -0.5054789 -8.316027
21.490023 -30.270735 -13.871401 4.3888226 -0.13461415 1.5475204 25.422962 5.9855514
10.109797 -13.547399 -6.096655 0.0019956427 -3.7779756 -22.160965 -6.39179 0.80467415
37.18537 7.4149547 -1.8348725 0.5358458 -0.02917483 -6.343923 -7.638832 -5.0444293
-2.2747827 -0.6923968 2.694299 -3.489422 0.087064214 -0.5355361 -1.7769872 -0.74810326
-0.9266596 0.81771827 4.5192685 0.9515637 -0.05302594 -2.7570283 -0.41547483 5.075202
3.7228322 -7.6528335 -0.014066035 -3.9595995 -1.1050683 1.7377728 1.062143 -10.375129
20.808653 1.6286165 -6.4710336 -0.084623635 -7.192497 -10.588432 -8.532979 -8.969595
7.3003297 2.6830313 -3.5733838 3.1327717 14.28342 2.9893043 0.42615157 -12.956475
1.3344586 -2.2867253 1.0731928 -1.4710753 -11.033656 8.287163 2.6979878 2.1215153
1.0792546 -0.23643363 5.835257 1.9385055 -2.114229 2.6540103 -0.58541405 -1.1810347
1.3713181 -5.0409374 -4.26523 0.10531089 -0.57073045 0.1810638 -1.7971854 -4.8007245
1.4142773 0.17605665 4.453806 -0.2060002 -1.2173641 -2.748765 12.236707 -25.440285
-14.231988 0.2569561 -0.11359274 -1.8908163 27.609438 11.772074 6.2387724 -10.581736
-5.603911 1.7082154 -3.9422424 -21.714085 -5.28208 0.33018708 34.60307 -1.5587916

network.0.bias f4 [24]
00000000: a556 26c0 6a39 04c0 9b97 8bbf eb0b 92bf
00000010: 8be9 e0bf c3d3 1dc0 365b 9ebf c034 afbe
00000020: 65aa 82bf d01f 68c0 1e97 813f 74da d0bf
00000030: 37fa 47c0 47d2 bebf e3be 253e 4b05 5ebf
00000040: d698 dc3b e65c 2640 c8dc 4fc0 744c b93f
00000050: 56d0 66bf 8791 a1bf dabc be3f 8cdc 823f
-2.5990384 -2.0660043 -1.0905641 -1.1409887 -1.7571272 -2.46605 -1.2371585 -0.34219933
-1.020825 -3.6269417 1.0124242 -1.6316667 -3.124647 -1.4907922 0.16186099 -0.86726826
0.0067320867 2.59942 -3.2478504 1.4476457 -0.90161645 -1.2622536 1.4901383 1.0223556

network.2.weight f4 [24, 24]
00000000: bd38 62bf c64f 04c0 3dd0 0e40 3866 0b40
00000010: 16b3 5ebd e14d 093f a00f 743f 2173 83c0
00000020: 4ccb 0340 101b a2bf 6b57 febf f995 59c0
00000030: 4bd6 2ec0 b36b a3bf 25d1 5c3f bd19 76c0
00000040: 59a5 b1c0 5b5e 94c0 6ed7 323f 54bf 98c0
00000050: ae80 ad3f 089c 1cc0 d7c1 86c0 2604 afbf
00000060: 9ece 8d3f 8d9f 1d40 2c99 debe c626 423f
00000070: 074f 1c3f 0b98 b43d 5807 533f 4ad3 c940
00000080: 8043 e3be 0e9d ce3f 55f6 1240 bc1a 9e40
00000090: 0910 543f 20af e1bf 0c9a 0640 d4aa afbc
000000a0: 65db 3640 3d02 d53f f068 853f a9f2 eb3f
000000b0: cdf8 c83f 893c 22bf d167 f13f 7a7c 2240
000000c0: e639 7a40 a805 c9c0 9fcd c340 5dcf 2840
000000d0: a2d4 b9be a1d7 0540 16ed 0a40 8fe1 3e3f
000000e0: 71f0 b740 8df2 533f cec5 ae3f 4911 22c0
000000f0: f9b4 bdbf 9bd9 1ec0 87fb e840 40a8 06c1
00000100: dbe7 cbbf f895 e63f 4cc8 393f fa28 813e
00000110: 0c33 b440 d688 ebc0 dd94 21bf 9c03 aabf
00000120: b598 96bf 2d7f 86c0 1f6e 0d40 cc7f b93f
00000130: 89a7 c13e 7473 1e3f 74a4 bf3f 7b7f 45c0
00000140: 007d e33f d1b0 64bf 9d58 81bf d821 4bc0
00000150: f378 abbf f5de babf 6639 e73d 0cfb a7c0
00000160: 170a 55c0 f17b 8dc0 89b5 443f 1a5f b0c0
00000170: c493 61bc 9e72 7ac0 c960 84bf b92a 953e
00000180: 315c 093f 55fe fbbf f476 31bf fec2 7bbf
00000190: 269d 1ebf 4a81 87bf f693 a8bf b3fd 4ac0
000001a0: 7628 73be 2cfd 9f3e 0b19 d9be 6eb0 5ac0
000001b0: ac28 c8bf ff6f d2bf 2022 b43f e6ad 5dc0
000001c0: cd0c 3fc0 b525 8dc0 87fc e6bf 3c89 19c0
000001d0: 38ab d4bf 702e 7dc0 b6bf e9bf 1dec d6bf
000001e0: 214d a83f 778b 07c0 061b 0a40 b9fa 423f
000001f0: 1a52 b4c0 c37c 923f 8f3e 703f d5c2 63c0
00000200: 1839 f43f 7092 5abe 41a1 2dbe d83c 53c0
00000210: 01b9 36c0 a270 bec0 21e1 943f 56cc 65c0
00000220: 25e1 81c0 abeb 9bc0 2ed1 cabf a7ea 95c0
00000230: e0c2 203f 8e53 56c0 25ac a7c0 4b2b 88c0
00000240: 892a 52be 20d7 88c0 87f0 7340 3b75 5040
00000250: 2cdb 943e d674 7f3f b6f7 f93f f696 4cc0
00000260: b9ee 5440 bd80 393f 19bf 01c0 9528 28c0
00000270: 900e 8dc0 1a44 9fbf 115f 0b3f 2f62 24c1
00000280: f983 45c0 375d 09c0 2eca a6bf a5e0 30c0
00000290: 0120 fe3f dece 07c1 633d 743e bc6f 6fc0
000002a0: 55f8 3840 c982 3f3f 58d0 5fc0 3c58 88bf
000002b0: 0051 81bd ed1c d33f 3264 3abf a004 2640
000002c0: f7a5 3cbf 36c7 d93f eb08 f73f 1eec af3f
000002d0: fc47 91be 9c44 cd3d 4826 85bd fe5a 1e40
000002e0: c95c 99bf 6740 3e40 3e8d a33e 6341 c43f
000002f0: dbe4 02c0 8266 82bf 2ee5 9140 b8de 1440
00000300: bcd6 c13f c698 0f3f 3c7c 42bf 9180 f3be
00000310: ec83 2a40 26bb 10bd 3491 52bf 2633 cd40
00000320: 2b24 4ebf fe31 2040 2076 7cbc 54be ac40
00000330: bd96 2c3d fefb fdbe 343e afbe ce82 2f40
00000340: 8c23 97bf 98f6 8040 f974 633f ce3c e5bd
00000350: 531e 9f3f edd7 3740 a5a1 e1bd 2d26 453e
00000360: 93d2 04c0 c2b4 cd40 3c01 00c1 f1f4 72c0
00000370: d6e4 8640 cd92 46c0 e771 cfc0 1387 c33f
00000380: ca53 ddc0 b732 14c0 800b bbbe 6e32 673f
00000390: 7375 9240 ba79 0940 bd6e 94c0 53ee 0a41
000003a0: 2637 f53f 8a22 3ec0 7d7c fe3f 741d 65be
000003b0: 2442 acc0 2d54 6c40 f754 64bf d4b4 3a3f
000003c0: 78e5 d8bf dc51 9540 4779 adc0 552e 73c0
000003d0: 8ab0 d9bd e215 5ac0 38e5 54c0 b3d3 863f
000003e0: 746a 92c0 d246 e6be 2f00 0d40 bdef 6b3e
000003f0: 0839 5440 0c80 b53f 3935 51c0 0231 ad40
-0.88367826 -2.067369 2.2314599 2.178114 -0.05437001 0.5363446 0.9533634 -4.107804
2.0592833 -1.2664509 -1.9870428 -3.3997786 -2.7318294 -1.2767242 0.8625663 -3.845321
-5.551434 -4.636518 0.6985997 -4.7733555 1.3554895 -2.4470234 -4.211162 -1.3673141
1.107868 2.4628632 -0.43476236 0.75840414 0.61058086 0.088180624 0.8243308 6.307042
-0.44387436 1.6141679 2.296285 4.9407635 0.8283697 -1.7631569 2.1031523 -0.021443762
2.8571408 1.6641308 1.0422649 1.8433429 1.5700928 -0.6337362 1.8859807 2.5388474
3.9097838 -6.2819405 6.11885 2.6376565 -0.36295038 2.091286 2.1707206 0.74562925
5.7481008 0.8279198 1.3654115 -2.532305 -1.4820853 -2.4820316 7.280704 -8.416077
-1.5930132 1.8014517 0.72571254 0.25226575 5.6312313 -7.3604536 -0.6311777 -1.3282351
-1.1765352 -4.2030244 2.2098463 1.4492126 0.37823132 0.6189492 1.4972062 -3.0859058
1.7772522 -0.893323 -1.0105168 -3.1739407 -1.3396286 -1.4599291 0.11290245 -5.2493954
-3.3287408 -4.4213796 0.768395 -5.511609 -0.01376814 -3.9132457 -1.0342036 0.29134157
0.536563 -1.9686991 -0.69322133 -0.9834441 -0.6195854 -1.0586331 -1.3170154 -3.1717346
-0.23745903 0.31247842 -0.4240192 -3.4170184 -1.5637412 -1.6440428 1.4072914 -3.463739
-2.9851563 -4.410853 -1.8045815 -2.3990011 -1.6614752 -3.9559593 -1.826163 -1.6790806
1.3148538 -2.1178873 2.1578994 0.7616382 -5.635022 1.1444324 0.93845457 -3.5587666
1.9079924 -0.21344924 -0.16956045 -3.3005886 -2.8550417 -5.951249 1.1631204 -3.5905967
-4.0587335 -4.872518 -1.5845087 -4.684894 0.62797356 -3.3488498 -5.2397637 -4.255285
-0.20524038 -4.2762604 3.8115556 3.2571552 0.29073465 0.9978765 1.952872 -3.196714
3.3270705 0.72462064 -2.0272887 -2.627477 -4.4080276 -1.2442658 0.54441935 -10.273971
-3.08618 -2.1463144 -1.303045 -2.7637112 1.9853517 -8.488005 0.23851542 -3.7411947
2.890157 0.7480894 -3.4970913 -1.0651927 -0.06314278 1.6493202 -0.72809136 2.5940323
-0.7369074 1.7013919 1.9299597 1.3743932 -0.28375232 0.10022852 -0.06501442 2.4743037
-1.1981441 2.9726808 0.31943697 1.5332454 -2.0452182 -1.0187533 4.559226 2.3260937
1.5143657 0.5609249 -0.75970817 -0.47559026 2.6643019 -0.03533473 -0.8225281 6.4124937
-0.8052394 2.5030513 -0.015409023 5.3982334 0.042135943 -0.49606317 -0.34227145 2.7423587
-1.1807723 4.030102 0.8885036 -0.11193238 1.2431129 2.872554 -0.110171594 0.19252844
-2.0753524 6.428315 -8.000301 -3.7962 4.215434 -3.10271 -6.482654 1.5275596
-6.916478 -2.3155954 -0.3653221 0.90311325 4.576837 2.1480546 -4.638518 8.683185
1.9157455 -2.970858 1.9881741 -0.22374517 -5.383074 3.6926377 -0.89192146 0.7293217
-1.6945028 4.6662426 -5.4210544 -3.799703 -0.10629375 -3.4075856 -3.3264904 1.0533355
-4.575495 -0.44975907 2.2031362 0.23040672 3.315981 1.4179702 -3.2688735 5.4122324

network.2.bias f4 [24]
00000000: 4e73 f9bf 3950 b93f bf3a 7640 1e14 a4bf
00000010: 9ef2 70bf 509b 94bf 73b8 6d3f 889e 9e3f
00000020: b05a a03f 5124 6ec0 72fd 8b3e e07f f53f
00000030: 2a68 7940 2d2e 143f 63ac f53f 1180 88bf
00000040: a28f 9e3f 3804 abbf f554 e73f 1bed 05c0
00000050: c656 16bf 3d28 11c0 41c1 0140 4f97 adbf
-1.9488313 1.4477607 3.8473356 -1.2818639 -0.94120204 -1.1609898 0.9285957 1.239213
1.2527676 -3.7209666 0.273418 1.9179649 3.8969827 0.5788296 1.9193233 -1.0664083
1.2387583 -1.3360662 1.8072802 -2.0925968 -0.58726156 -2.268081 2.0274203 -1.3561801

network.4.weight f4 [2, 24]
00000000: 7a67 d9bf 4eaa 8b40 c534 10c1 281b 95bf
00000010: cf7d 38c0 5133 97c0 bfbc b6c0 fd8b 97bf
00000020: 2d22 953f 2d38 ff40 d3e5 6c40 6a45 a53f
00000030: 90e1 34bf a71a cd3f d970 bc3f 01ea a640
00000040: bac8 0140 2977 a1bf 5ede 1040 e46a 91be
00000050: 080c 8a40 5e67 c7bf 56a4 3040 db18 18c0
00000060: fad7 5d40 3f30 26c0 c100 cb40 058a 06bf
00000070: af97 153f 4833 6d40 63ec a940 55e9 39c0
00000080: 23c8 a3be ef02 1cc1 b1e6 87c0 5c5e f8bf
00000090: e671 bcbf 5bec 9dbf f03b f7bf 74ba b4c0
000000a0: 2da8 31bf 34c1 0c40 8e32 1bc0 a798 ad3f
000000b0: aae6 55c0 fa74 b43f ce42 cfbf 43a0 423e
-1.6984704 4.364539 -9.012883 -1.1648912 -2.8826787 -4.725014 -5.7105403 -1.1839596
1.1651055 7.9756074 3.7015274 1.2911808 -0.7065668 1.6023759 1.4721938 5.216065
2.0278764 -1.261449 2.2635722 -0.28401864 4.3139687 -1.557842 2.7600303 -2.376517
3.4663072 -2.5966947 6.343842 -0.5255435 0.58434576 3.706255 5.310106 -2.9048665
-0.3198863 -9.750716 -4.2469106 -1.9403796 -1.4722259 -1.2337755 -1.9315166 -5.6477604
-0.6939724 2.1992922 -2.4249606 1.3562211 -3.3422036 1.4098198 -1.6192262 0.19006447

network.4.bias f4 [2]
00000000: cab5 17c1 4eb7 0fc1
-9.481882 -8.982252
